model_1.pth (torch, 4935 bytes, 8 tensors)

weight f4 [1, 1, 2]
0	0xbea8e905	-0.3299028
1	0x3fb953b5	1.447867

weight_ih_l0 f4 [16, 1]
0	0xbf0863ec	-0.5327747
1	0x3f80bc18	1.0057402
2	0x3f6cb9ee	0.92471206
3	0x3ec6c4e7	0.388221
4	0x3ede83a4	0.4345981
5	0x3dbfa6b0	0.09357965
6	0x3ebd2294	0.36940444
7	0x3d8aae50	0.06771529
8	0xb9ff04a8	-0.0004864086
9	0xbf0be7dd	-0.5465067
10	0x3f0aa196	0.5415281
11	0xbeca225c	-0.3947934
12	0xbf096210	-0.53665257
13	0x3f778ee8	0.9670243
14	0x3f193446	0.5984539
15	0x3f1d16a9	0.613627

weight_hh_l0 f4 [16, 4]
0	0xbe4ff3fc	-0.20307916
1	0x3ea9d2ae	0.33168548
2	0xbeca142a	-0.3946851
3	0xbe6c098c	-0.23050517
4	0xbe10936c	-0.14118737
5	0xbe99ecfe	-0.30063623
6	0x3d414bf0	0.04719156
7	0xbefcd88a	-0.49383956
8	0x3ee73228	0.45155454
9	0xbed976c0	-0.42473412
10	0x3ec5a396	0.3860137
11	0x3daa69c8	0.083209574
12	0xbe263fac	-0.16235226
13	0x3e9e31f8	0.30897498
14	0x3d9f9758	0.077925384
15	0x3eced6b0	0.4039817
16	0x3d5fe300	0.054659843
17	0xbe217898	-0.15768659
18	0x3e0990e8	0.13434184
19	0xbe0ad808	-0.13558972
20	0x3e577aa4	0.21042877
21	0x3ee48ffe	0.44641107
22	0x3e93fbb6	0.28902978
23	0xbe5fd514	-0.21858627
24	0x3e93c79e	0.28863233
25	0x3db73870	0.089463115
26	0x3e82017a	0.25391752
27	0xbe9c0886	-0.30475253
28	0xbefd6aa4	-0.49495423
29	0xbe45d10c	-0.19318026
30	0xbec45b9c	-0.38351142
31	0x3ed20ed6	0.41026944
32	0x3e1378d8	0.14401567
33	0x3e5413cc	0.20710677
34	0x3e21ecfc	0.15813059
35	0xbc0e8200	-0.008697987
36	0x3ec85904	0.39130414
37	0xbeb5e438	-0.3552568
38	0x3d00f320	0.031481862
39	0xbeaebaf4	-0.3412701
40	0x3e1de050	0.154176
41	0xbe3052e0	-0.17219114
42	0x3e1ce298	0.15320814
43	0xbdd55778	-0.10417074
44	0x3ed45306	0.41469592
45	0xbe97bb50	-0.29635096
46	0xbe98ad8a	-0.298199
47	0xbe98afe6	-0.298217
48	0x3ee641e2	0.4497214
49	0x3e2a9fe4	0.16662556
50	0x3ef65610	0.48112535
51	0xbed3454e	-0.41263813
52	0xbefdeb98	-0.49593806
53	0xbec848fe	-0.3911819
54	0xbeac355a	-0.33634454
55	0x3e4f616c	0.20252007
56	0x3e3755b8	0.17903793
57	0x3ed4b776	0.4154622
58	0xbe843474	-0.2582127
59	0xbeae84aa	-0.3408559
60	0x3e87d3f8	0.26528907
61	0xbe4ef3e4	-0.20210224
62	0x3e9b5f5c	0.3034619
63	0xbdf2fef0	-0.11865032

bias_ih_l0 f4 [16]
0	0xbebce409	-0.36892727
1	0xbe733b81	-0.23753168
2	0xbe8d3c9b	-0.275853
3	0x3eba0c3c	0.3633746
4	0x3dd87b38	0.10570377
5	0xbe0289f4	-0.12747937
6	0x3e989802	0.29803473
7	0x3eae07fa	0.3399046
8	0xbedc7d13	-0.43064174
9	0xbe8d77f5	-0.27630582
10	0x3e80dac4	0.25166905
11	0xbe4d1572	-0.20027712
12	0xbf56c9dc	-0.8390176
13	0xbe64f7a3	-0.22360091
14	0xbcc19f60	-0.023635566
15	0x3e850fd0	0.25988626

bias_hh_l0 f4 [16]
0	0xbf389012	-0.72094834
1	0xbe591419	-0.21199073
2	0xbc415650	-0.011800364
3	0xbe05be64	-0.1306091
4	0xbed93086	-0.42419833
5	0xbe8cf83a	-0.27533132
6	0xbee00de6	-0.43760604
7	0xbea30144	-0.31836903
8	0x3edd0e47	0.43174955
9	0x3dae3746	0.08506636
10	0xbd555214	-0.05208023
11	0xbefeed06	-0.4979021
12	0xbf7d7a24	-0.99014497
13	0x3dc00948	0.0937677
14	0x3eae88d0	0.34088755
15	0xbe9c25f0	-0.30497694

weight f4 [1, 4]
0	0xb9899871	-0.00026244254
1	0xbf5734bf	-0.8406486
2	0x3ebf12d2	0.37319046
3	0xbeebd20e	-0.46058697

hidden f4 [1, 6, 4]
0	0x37ea15ae	2.790507e-05
1	0xbd9638c8	-0.07335049
2	0x3dc0a1db	0.094058715
3	0xbe451310	-0.19245553
4	0x37dc03f4	2.6227885e-05
5	0xbda7f347	-0.08200698
6	0x3dd3fa41	0.103504665
7	0xbe4bb029	-0.19891419
8	0x373e0e67	1.1328236e-05
9	0xbe622cdd	-0.22087426
10	0x3e753422	0.23945668
11	0xbe9054c0	-0.2818966
12	0x3772d8e8	1.44748265e-05
13	0xbe3654f9	-0.17805852
14	0x3e4c9976	0.19980416
15	0xbe848295	-0.25880876
16	0x376fa3d1	1.4283652e-05
17	0xbe38b346	-0.18037137
18	0x3e4ed52c	0.20198506
19	0xbe852a96	-0.26009053
20	0x37881235	1.6220942e-05
21	0xbe223577	-0.15840708
22	0x3e396952	0.18106583
23	0xbe7da7cf	-0.24771045

hidden f4 [1, 6, 4]
0	0x396cd0ba	0.0002258447
1	0xbe0fb624	-0.14034325
2	0x3e1e3b64	0.15452343
3	0xbec47df9	-0.3837736
4	0x39635734	0.00021680893
5	0xbe1da4ca	-0.15394893
6	0x3e2c9876	0.16855034
7	0xbec8e289	-0.39235333
8	0x390083b0	0.00012256089
9	0xbeb075b6	-0.34464806
10	0x3eb7dab5	0.35909048
11	0xbefcc512	-0.49369103
12	0x391857bc	0.00014528533
13	0xbe944254	-0.28956854
14	0x3e9c2783	0.30498895
15	0xbeef1168	-0.46692967
16	0x3916f4b9	0.00014396281
17	0xbe95d004	-0.29260266
18	0x3e9db03f	0.30798528
19	0xbeefd779	-0.4684408
20	0x3924b318	0.00015706976
21	0xbe86e443	-0.26346025
22	0x3e8ee8cc	0.27911985
23	0xbee84cf6	-0.45371217
